recommender_model.pth (torch, 13965 bytes, 6 tensors)

fc1.weight f4 [32, 44]
0	0xbeaa4987	-0.33259222
1	0xbeae4ec4	-0.34044468
2	0xbeb5c354	-0.35500586
3	0xbeb1ae3a	-0.34703237
4	0xbeaafb22	-0.33394724
5	0x3e046f4c	0.12933081
6	0xbeae4d00	-0.3404312
7	0xbea8b62f	-0.32951495
8	0xbea66b05	-0.32503524
9	0xbebb1fa1	-0.36547568
10	0xbd5bac7b	-0.053631287
11	0xbe0b7eb5	-0.13622554
12	0xbeaee5c5	-0.34159675
13	0x3e692798	0.2276901
14	0x3e6a477c	0.22878832
15	0xbeb71ac8	-0.3576262
16	0xbea5588f	-0.32294127
17	0xbeb23b62	-0.3481093
18	0x3db82370	0.08991134
19	0xbeb3e31b	-0.35134205
20	0xbea8ca0f	-0.32966658
21	0x3e050f93	0.12994222
22	0xbe95cc3d	-0.29257384
23	0xbeb0777f	-0.34466168
24	0xbd19e1c1	-0.03756881
25	0xbea7491d	-0.32672969
26	0x3d4aea86	0.049540065
27	0xbeaa0885	-0.33209625
28	0xbeafb879	-0.3432043
29	0xbea3cf4b	-0.3199409
30	0xbea74f41	-0.32677653
31	0xbea85d11	-0.32883504
32	0xbea93645	-0.33049217
33	0xbeaf7d31	-0.342752
34	0xbebe8aea	-0.37215358
35	0xbeb9b2be	-0.36269182
36	0xbeb5b4dd	-0.3548955
37	0xbeb1bbfe	-0.3471374
38	0xbea1af2e	-0.31578964
39	0xbeb3d031	-0.35119775
40	0xbeb86926	-0.36017722
41	0xbeb22925	-0.34797016
42	0xbe6890f1	-0.22711541
43	0xbeacfbbf	-0.33785817
44	0xbe6d9436	-0.23201069
45	0xbe5bacdd	-0.21452661
46	0xbe354f99	-0.17706145
47	0xbe469ae9	-0.19395031
48	0xbe7662e1	-0.24061157
49	0xbe805a90	-0.25069094
50	0xbe021d01	-0.12706377
51	0xbe5be5da	-0.214744
52	0xbdee880f	-0.11647045
53	0xbdb82114	-0.08990684
54	0xbe741bca	-0.23838726
55	0xbe76c5cd	-0.24098893
56	0xbe1c6592	-0.15273121
57	0xbe77c9a8	-0.2419802
58	0xbe644cca	-0.22294918
59	0xbdfa3b62	-0.122183576
60	0xbe4da043	-0.20080666
61	0xbe6d4ef5	-0.23174651
62	0xbe6226a0	-0.22085047
63	0xbe27cf25	-0.16387613
64	0xbe1aaab1	-0.15104176
65	0xbe6844a9	-0.22682442
66	0xbe394eef	-0.18096517
67	0xbe7d598d	-0.24741192
68	0xbe7100c2	-0.23535445
69	0xbce7ef44	-0.028312333
70	0xbe64d174	-0.22345525
71	0xbe785ebf	-0.24254893
72	0xbe76ecfc	-0.2411384
73	0xbe6267ea	-0.22109953
74	0xbe673cff	-0.22581862
75	0xbde23ef5	-0.11047164
76	0xbded55dc	-0.11588642
77	0x3f3fedc8	0.749722
78	0xbe6c6833	-0.23086624
79	0xbe3e3c7a	-0.18577757
80	0xbe1e0d7c	-0.15434831
81	0xbe75a7c5	-0.2398978
82	0xbd97ef20	-0.07418656
83	0xbd9dff57	-0.07714718
84	0xbdc49188	-0.095980704
85	0x3e1ae48e	0.15126249
86	0xbe686bd2	-0.2269738
87	0xbdd73e31	-0.10509909
88	0xbde2d218	-0.110752285
89	0xbdda56ff	-0.106611244
90	0xbde7d6c1	-0.11320258
91	0xbdf20ef6	-0.1181926
92	0xbdc6ed8c	-0.09713277
93	0xbdf6cb84	-0.12050536
94	0xbde631b4	-0.11239949
95	0xbdda3231	-0.106541045
96	0xbddf2d1f	-0.10897278
97	0xbdde8515	-0.10865227
98	0xbdab6b6e	-0.083701
99	0x3ebabf54	0.36474097
100	0xbdad7c42	-0.08470966
101	0xbdaed0a4	-0.08535889
102	0xbe0ec07b	-0.13940613
103	0xbd96c0ad	-0.07360969
104	0xbdc3c6d8	-0.09559411
105	0xbdbdaeb7	-0.0926184
106	0xbdb9e93a	-0.090776876
107	0xbdbc6995	-0.09199826
108	0xbde3be49	-0.111202784
109	0x3f2a4a7a	0.6651989
110	0xbdee09fb	-0.116229974
111	0xbdc8eef4	-0.09811202
112	0xbdd90758	-0.10597104
113	0xbcabed58	-0.020987198
114	0xbde82236	-0.1133465
115	0xbdca47af	-0.09876954
116	0xbdc8e207	-0.09808736
117	0xbdd24233	-0.10266533
118	0xbdd532ed	-0.10410104
119	0xbdabce81	-0.08388997
120	0xbdcab077	-0.09896939
121	0xbdd48d55	-0.103785194
122	0xbdd9aee7	-0.10629063
123	0xbda025b0	-0.07819688
124	0xbdf55d75	-0.11980716
125	0xbdc59b5b	-0.09648772
126	0xbd9bf020	-0.076141596
127	0xbd16342e	-0.036670856
128	0xbdca429c	-0.09875986
129	0x3ea200c3	0.31641206
130	0xbdc845c6	-0.09778933
131	0xbddf4dde	-0.10903524
132	0xbce77c2b	-0.02825745
133	0xbd74ab54	-0.059733704
134	0xbddd5d5a	-0.10808821
135	0xbdd43c43	-0.103630565
136	0xbd35da3c	-0.044397578
137	0xbdd703b2	-0.10498752
138	0xbd99bf93	-0.07507243
139	0xbd509e01	-0.050931934
140	0xbdb17e8b	-0.08666714
141	0xbd510496	-0.051029764
142	0x3edc9d90	0.4308896
143	0xbd416eef	-0.047224935
144	0xbcf81137	-0.030281646
145	0xbd75121d	-0.059831727
146	0xbd001421	-0.031269196
147	0xbdf3732b	-0.11887201
148	0xbd4c4fa9	-0.049880657
149	0xbd330c3a	-0.043712832
150	0xbd42fc0f	-0.047603663
151	0xbd69ff25	-0.05712809
152	0xbda4fe91	-0.08056367
153	0xbccddf03	-0.025130754
154	0xbe06755d	-0.13130708
155	0xbd28b60d	-0.041189242
156	0xbc28b347	-0.010296649
157	0xbd0d3693	-0.034475874
158	0xbce59114	-0.02802328
159	0xbcef907e	-0.029243704
160	0x3f0cf611	0.5506297
161	0xbce4775e	-0.02788895
162	0xbe189759	-0.14901485
163	0xbc714315	-0.014725466
164	0xbdcdeab8	-0.10054535
165	0xbd608425	-0.054813523
166	0xbd02b160	-0.03190744
167	0xbd542ccc	-0.051800534
168	0xbdee695c	-0.116411895
169	0xbcb52f1a	-0.022117186
170	0xbdbbba3e	-0.09166382
171	0xbd0e1504	-0.03468801
172	0xbdb2b43b	-0.087257825
173	0xbe1926de	-0.14956233
174	0xbd31e477	-0.04343077
175	0xbd32315a	-0.043504097
176	0xbee3a15f	-0.44459054
177	0xbee672a6	-0.45009345
178	0xbeda5e8b	-0.42650256
179	0xbed93fa6	-0.42431372
180	0xbee8c49e	-0.45462507
181	0x3e043e3f	0.1291437
182	0xbee96ab2	-0.45589215
183	0xbeeb486f	-0.459537
184	0xbed3047f	-0.41214368
185	0xbeb95528	-0.36197782
186	0xbb3ecf28	-0.0029115174
187	0xbeb9c807	-0.3628542
188	0xbee4f782	-0.44720083
189	0xbeee2b09	-0.46517208
190	0xbeeaeabe	-0.4588222
191	0xbef02591	-0.4690366
192	0xbef0388e	-0.46918148
193	0xbeec9d1e	-0.4621362
194	0xbee89e61	-0.45433334
195	0xbee5e744	-0.44903004
196	0xbee655c7	-0.44987318
197	0xbedcfb72	-0.43160588
198	0xbeeb9795	-0.46014085
199	0xbee6b104	-0.45056927
200	0xbeb13c87	-0.3461649
201	0xbeeb8f9d	-0.46008006
202	0xbd1e718d	-0.03868251
203	0xbeeefb87	-0.46676275
204	0xbcc5fc0a	-0.024168033
205	0xbef1a644	-0.47197163
206	0xbef03799	-0.46917418
207	0xbeeaaf61	-0.45836928
208	0xbee86428	-0.45388913
209	0xbeedfa94	-0.46480238
210	0xbef7eded	-0.4842371
211	0xbeeae5d1	-0.4587846
212	0xbee8f49d	-0.45499125
213	0x3e929c71	0.2863498
214	0xbeeb2119	-0.4592369
215	0xbee6f05b	-0.45105252
216	0xbee629f1	-0.44953874
217	0xbef77996	-0.4833495
218	0xbeccc15c	-0.39991271
219	0xbee68f28	-0.45031095
220	0xbedc9b81	-0.4308739
221	0xbea0a90d	-0.31378976
222	0xbed12057	-0.40844986
223	0xbeda8ff9	-0.42687967
224	0xbed4b841	-0.41546825
225	0xbedc4037	-0.43017742
226	0xbeb06da0	-0.34458637
227	0xbed70d2e	-0.42002243
228	0xbedc382c	-0.43011606
229	0xbeda9bc7	-0.42696974
230	0xbed8337c	-0.4222678
231	0xbeae9976	-0.34101456
232	0xbedcd166	-0.43128508
233	0xbeddacec	-0.4329599
234	0x3e253220	0.16132402
235	0xbed4f1d8	-0.41590762
236	0xbed68f51	-0.41906217
237	0xbed62ab5	-0.41829458
238	0xbedb47a1	-0.42828086
239	0xbedf03fb	-0.43557724
240	0xbeb65e79	-0.35618952
241	0x3e8b6929	0.27228668
242	0xbed463c5	-0.41482368
243	0xbee1ef02	-0.4412766
244	0xbee5b178	-0.4486196
245	0xbeb61ae5	-0.35567394
246	0xbe0e1cba	-0.13878146
247	0xbedafbd2	-0.4277025
248	0x3e53b17f	0.20673178
249	0xbee02de7	-0.4378502
250	0xbe969e8d	-0.2941784
251	0xbeb73fd9	-0.357909
252	0xbeda9130	-0.42688894
253	0x3e37c538	0.17946327
254	0xbee1203c	-0.43969905
255	0xbed941aa	-0.4243291

fc1.bias f4 [32]
0	0x3e4acd7d	0.1980495
1	0x3e42c788	0.19021428
2	0xbe05dbcd	-0.13072129
3	0xbdb32add	-0.0874841
4	0x3e94c375	0.29055372
5	0x3edb1dc6	0.42796153
6	0xbe126fb9	-0.14300431
7	0x3d8ee286	0.069768
8	0x3dad96af	0.08476006
9	0x3f0ac8cc	0.5421264
10	0xbe1ce344	-0.1532107
11	0xbe03217f	-0.12805746
12	0x3efe7605	0.49699417
13	0xbd10c33f	-0.03534245
14	0x3e031db7	0.12804304
15	0x3ea1b6d3	0.31584796
16	0x3d8d03cd	0.068854906
17	0x3e90c7e5	0.28277507
18	0x3ed2a454	0.41140997
19	0xbe19aa66	-0.15006408
20	0x3d940770	0.07227981
21	0x3f191c00	0.5980835
22	0x3f06b4b1	0.52619463
23	0x3e740838	0.2383126
24	0x3cc910a7	0.024544073
25	0x3e7af4e6	0.24507484
26	0x3e7bbfe5	0.2458492
27	0x3ec68efa	0.38780957
28	0x3e90b14f	0.28260276
29	0x3efc0340	0.4922123
30	0x3ec60809	0.38678005
31	0x3eba667d	0.36406317

fc2.weight f4 [16, 32]
0	0x3ea9bd8d	0.33152428
1	0xbc8ec2cd	-0.017426873
2	0x3dae9fab	0.08526548
3	0xbee8d980	-0.4547844
4	0xbffb881b	-1.9650911
5	0xbfdcf86d	-1.7263314
6	0xbdf4ed56	-0.11959331
7	0x3e941135	0.28919378
8	0xbfe0b2fb	-1.755462
9	0xbfe27428	-1.7691698
10	0xbeee63c9	-0.46560505
11	0xbf9802f7	-1.1875905
12	0xbfec6db0	-1.8470974
13	0xbf179532	-0.5921203
14	0x3e8fed2e	0.2811064
15	0xbf26a60c	-0.6509712
16	0xbee8585e	-0.4537992
17	0x3e8cb85c	0.27484405
18	0xbc1e3d05	-0.009658103
19	0xbe1d5cdf	-0.15367459
20	0x3ea8aa6a	0.32942516
21	0xbcfca86d	-0.03084203
22	0x3e847517	0.25870582
23	0xbfe1d794	-1.7643914
24	0x3e94a4d0	0.29031992
25	0xbf9a794a	-1.2068264
26	0xbf340814	-0.70324826
27	0xbfea6bcb	-1.8314146
28	0xbf823312	-1.0171835
29	0x3c74f390	0.014950648
30	0xbf5f7ebf	-0.87302774
31	0xbfdd96ed	-1.7311684
32	0xbf9f7dd0	-1.246027
33	0x3de8100f	0.11331188
34	0x3ed34e46	0.41270655
35	0xbe183765	-0.14864881
36	0xbf04ea04	-0.5191958
37	0xbf38f3ce	-0.72247016
38	0x3d54a650	0.05191642
39	0xbf9937c4	-1.1970143
40	0xbf6d2661	-0.92636687
41	0xbfd08283	-1.6289829
42	0xbd842453	-0.06452241
43	0xbf25a943	-0.647114
44	0xbfdbf58b	-1.7184309
45	0xbf4df04b	-0.8044478
46	0xbefc3bef	-0.49264476
47	0xbf9179db	-1.1365312
48	0xbf27478f	-0.65343565
49	0xbfc1acbe	-1.5130842
50	0x3de0521e	0.109531626
51	0x3da16cf6	0.07882111
52	0xbee9db36	-0.45675057
53	0x3dc1c7e8	0.09461957
54	0xbfb1aaae	-1.3880212
55	0xbf562bff	-0.8366088
56	0x3eceba15	0.40376344
57	0xbf7388c6	-0.95130575
58	0xbfb4cfa7	-1.412587
59	0xbf2c5cba	-0.6732899
60	0xbf52e903	-0.823868
61	0x3d5ad645	0.053427
62	0xbfd36299	-1.6514465
63	0xbeaf51f0	-0.342422
64	0x3e6804e0	0.2265811
65	0xbf88c128	-1.0683947
66	0xbf9af90d	-1.2107254
67	0xbea86dfc	-0.3289641
68	0xbf09bbe4	-0.53802323
69	0xbf752569	-0.9576021
70	0x3e0dcd79	0.13847913
71	0x3e631674	0.22176534
72	0x3dcf32b3	0.10117092
73	0x3e38aaec	0.18033952
74	0xbea4e5e1	-0.32206634
75	0xbf32f98b	-0.6991202
76	0xbfc25491	-1.5182058
77	0xbf35d495	-0.710275
78	0xbf76e11e	-0.9643725
79	0xbf8e31e7	-1.1108979
80	0xbd2c5bb5	-0.042079646
81	0xbf66f461	-0.9021664
82	0xbf10fdb0	-0.56637096
83	0x3e042aef	0.12907003
84	0xbf6828b4	-0.9068711
85	0x3d48dcf4	0.049038842
86	0x3e4100d6	0.18847975
87	0x3e92636c	0.28591478
88	0xbf556873	-0.833625
89	0xbf877f11	-1.0585653
90	0xbf437e59	-0.76364666
91	0xbf8fd901	-1.1238099
92	0x3d4b6590	0.049657404
93	0x3d604087	0.054749038
94	0x3e141daf	0.14464448
95	0xbf7d0828	-0.9884057
96	0x3c59053f	0.01324588
97	0x3dc2846d	0.094979145
98	0x3e79074f	0.24319194
99	0xc0123171	-2.2842677
100	0xbf56e2f2	-0.8394004
101	0x3dd64a21	0.10463358
102	0xbcc5c1cb	-0.02414026
103	0x3e099d4b	0.13438909
104	0x3debce01	0.115139015
105	0x3d0016b7	0.031271663
106	0xbfd21411	-1.6412374
107	0xbd39f20a	-0.045396842
108	0x3ded8719	0.115980335
109	0x3d83e6b5	0.06440488
110	0x3e6123a5	0.21986254
111	0xbe369eec	-0.17834061
112	0xbfe38f52	-1.7778113
113	0xbcac8f39	-0.021064388
114	0xbdb716c5	-0.0893989
115	0x3ce6b920	0.028164446
116	0x3e24c762	0.16091684
117	0xbe70b56c	-0.23506707
118	0xbe4631cb	-0.19354932
119	0x3b634fc2	0.003468499
120	0xbbc46581	-0.0059935455
121	0xbfa5c6ba	-1.2951272
122	0xbfc22e54	-1.5170388
123	0x3d45be86	0.0482774
124	0xbdca6b9c	-0.09883806
125	0xbe297259	-0.16547526
126	0x3d5c8ef7	0.05384728
127	0x3e53c765	0.20681532
128	0x3ea3d86d	0.32001057
129	0xbb0f7202	-0.0021888022
130	0xbfc6b366	-1.5523498
131	0xbf3ecf93	-0.74535483
132	0x3e61882e	0.22024605
133	0x3d3309b0	0.04371041
134	0xbde6312a	-0.11239846
135	0x3e86f4a4	0.2635852
136	0x3e2e6f25	0.17034586
137	0xc00a2a9f	-2.1588514
138	0xbeee8e2d	-0.46592847
139	0xbdf734f9	-0.120706506
140	0x3c594301	0.013260604
141	0x3e2e697e	0.1703243
142	0xba3df5d4	-0.0007246409
143	0xbfd36c65	-1.6517454
144	0x3d8faa5b	0.070149146
145	0xbfcb2cf2	-1.5873091
146	0xc00565ae	-2.084331
147	0xbd3ea864	-0.04654731
148	0xbfa80eaf	-1.3129481
149	0xbfc88deb	-1.566831
150	0xbfedaa9c	-1.8567691
151	0xbfe521d9	-1.7900954
152	0xbfb69dc2	-1.4266894
153	0xbeec2c8c	-0.46127737
154	0xbfae1bdc	-1.3602252
155	0xbfd33031	-1.6499082
156	0xbf9af446	-1.2105796
157	0xbfdc8ac9	-1.7229854
158	0x3ad10b90	0.001594888
159	0xbf5dd37c	-0.86650825
160	0x3c43ff7e	0.01196277
161	0xbd29f58b	-0.041493934
162	0x3deb92ff	0.11502647
163	0xbf181233	-0.5940277
164	0xbf17ad22	-0.59248555
165	0xbe9e9ce7	-0.30979082
166	0x3e02215a	0.12708035
167	0x3c4b9384	0.012425307
168	0xbfcdfa15	-1.6091944
169	0xbfbb6ab4	-1.4641938
170	0x3dc66517	0.0968725
171	0x3d8a3fb3	0.06750431
172	0x3dfa98ed	0.122361995
173	0xbfa71769	-1.3054019
174	0xbeb4f53c	-0.3534335
175	0xbfb23490	-1.3922291
176	0xbf58711d	-0.845476
177	0x3d942342	0.072332874
178	0xbfe52925	-1.7903181
179	0x3e28e2b3	0.16492729
180	0x3d660d58	0.05616507
181	0xbf3bd9ca	-0.73379195
182	0xbddc54dc	-0.10758373
183	0x3d5e8eb2	0.054335304
184	0xbbb30905	-0.0054637217
185	0x3c22a4b9	0.009926968
186	0xbf78ed50	-0.9723711
187	0x3e363492	0.17793491
188	0xbf83c9a6	-1.0295913
189	0xbe389e03	-0.18029027
190	0xbf8e4981	-1.1116182
191	0x3e37bcfe	0.17943189
192	0x3e26a5f4	0.16274244
193	0xbde4f3a1	-0.11179281
194	0xbfa6d26f	-1.3032969
195	0x3d21a4e8	0.039463907
196	0x3dfe998b	0.1243163
197	0xc0152bf4	-2.3308077
198	0x3dc0621a	0.093937114
199	0x3c4ba454	0.012429316
200	0xbf874c8a	-1.0570233
201	0x3de837c7	0.11338764
202	0x3e61564e	0.22005579
203	0x3d747243	0.05967928
204	0x3d20d62c	0.03926675
205	0xbfc5c2f0	-1.5450115
206	0x3bd2fdfa	0.006438968
207	0x3d35247f	0.04422426
208	0xbf885a53	-1.0652565
209	0x3db5d473	0.08878412
210	0xbeccaeeb	-0.39977202
211	0xbe00e258	-0.12586343
212	0xbd348cb1	-0.044079486
213	0x3d943557	0.07236736
214	0xba89f8d3	-0.0010526426
215	0xbfc952d9	-1.5728408
216	0x3e1a0bf1	0.15043618
217	0x3dce5cf2	0.10076322
218	0xbf8908dc	-1.0705829
219	0x3e1970ed	0.14984484
220	0xbf30fe26	-0.691378
221	0xbe5edf54	-0.2176488
222	0xbfc9cb26	-1.5765121
223	0xbd25cb51	-0.0404771
224	0x3d86bf85	0.06579498
225	0xc03bdd2c	-2.9353743
226	0x3e43059d	0.1904511
227	0x3d91d168	0.07120019
228	0x3e062258	0.13099039
229	0x3dbc2c86	0.0918818
230	0x3db7c16b	0.089724384
231	0x3dc64676	0.09681408
232	0x3ddd6f32	0.108122244
233	0x3cd346f6	0.025790673
234	0xbe495408	-0.19660962
235	0x3e39af52	0.18133286
236	0xbee1c9ef	-0.44099376
237	0x3dd83425	0.10556821
238	0x3e1663d6	0.14686522
239	0xbda1f201	-0.07907487
240	0xbda6a256	-0.08136432
241	0x3d930ca1	0.07180143
242	0x3d5cebca	0.053935803
243	0x3e07ce4b	0.13262288
244	0x3e1e7ee3	0.15478091
245	0xbd7fb584	-0.062428966
246	0x3db8e136	0.090273306
247	0x3e39c2df	0.18140744
248	0x3d9556fd	0.07291982
249	0x3e0bc447	0.13649093
250	0xbba80174	-0.0051271264
251	0x3dde6c59	0.108605094
252	0xbe1b2556	-0.15150961
253	0xbe1e052c	-0.1543166
254	0xbf46d199	-0.7766357
255	0x3dfe48c3	0.12416222

fc2.bias f4 [16]
0	0x3e01df28	0.12682784
1	0x3e819026	0.2530529
2	0x3c409d4a	0.011756251
3	0x3e15626b	0.14588325
4	0x3e8a6eed	0.27037755
5	0x3e941b9a	0.28927308
6	0x3e77bdcf	0.241935
7	0x3e03ce15	0.12871583
8	0x3e9a60c5	0.30151954
9	0x3e50b5ab	0.20381801
10	0x3e215435	0.15754779
11	0x3e7c2e1c	0.24626964
12	0x3e59e344	0.21278101
13	0x3e92cfe6	0.2867424
14	0x3e5de740	0.21670246
15	0x3dcc8e02	0.09988023

fc3.weight f4 [44, 16]
0	0xbb4a8084	-0.0030899355
1	0xbcc46a30	-0.023976415
2	0xbd223ba5	-0.039607663
3	0xbc1f4b60	-0.009722561
4	0xbd17cdca	-0.03706149
5	0xbd03d917	-0.032189455
6	0xbd132e56	-0.03593286
7	0xbd1f60a5	-0.038910527
8	0xbd6253ef	-0.055255827
9	0xbd45bab2	-0.04827375
10	0xbcf0a17c	-0.029373877
11	0xbba7ab7f	-0.0051168795
12	0x3e5db57c	0.21651262
13	0xbc02080e	-0.007936491
14	0xbc87b9a2	-0.016568009
15	0xbaf51ec5	-0.0018701187
16	0xbc69157d	-0.014226315
17	0xbd2f3cf0	-0.042782724
18	0xbd537486	-0.051624797
19	0xbcdf4878	-0.027256235
20	0xbd1f846a	-0.03894464
21	0xbd20c52b	-0.039250534
22	0xbd658d41	-0.056042913
23	0xbd6d57fc	-0.057945237
24	0xbd8fb736	-0.070173666
25	0xbd2be64e	-0.041967683
26	0xbd21d749	-0.039511953
27	0xbc8e2e1e	-0.017355975
28	0x3e5eedc0	0.21770382
29	0xbc1322e1	-0.008980484
30	0xbc4f0af1	-0.012636886
31	0xbbc59936	-0.006030227
32	0xbc077480	-0.008267522
33	0xbcea9290	-0.02863434
34	0xbd2c83e6	-0.042117976
35	0xbc3f33c2	-0.011670055
36	0xbd47b3e3	-0.048755538
37	0xbd105fd4	-0.03524764
38	0xbd393a18	-0.04522142
39	0xbd1ff2e0	-0.039049983
40	0xbd83bb17	-0.06432169
41	0xbd5761de	-0.052583568
42	0xbcd13fac	-0.025543056
43	0xbbc97364	-0.006147789
44	0x3e8238e4	0.2543403
45	0xbc2103ff	-0.009827613
46	0xbc5ed853	-0.01360138
47	0x39cdc4a1	0.00039247147
48	0xbbd53d35	-0.0065075406
49	0xbd614f3f	-0.055007216
50	0xbcedf52b	-0.02904757
51	0xbc34e658	-0.011041246
52	0x3a24b3bd	0.00062828866
53	0xbbcb37f0	-0.0062017366
54	0xbd0cb7f5	-0.034355123
55	0xbc2195d1	-0.009862379
56	0xbd310f8a	-0.04322771
57	0x3d16a11f	0.03677475
58	0xbcca4074	-0.024688937
59	0xbb08424b	-0.0020791467
60	0x3e0b2a1b	0.1359028
61	0xbc6b453c	-0.0143597685
62	0xbc0cf2b0	-0.008602783
63	0xbc1b21b1	-0.009468482
64	0xbc379c58	-0.011206709
65	0xbc9afd64	-0.018919654
66	0xbcac4b6a	-0.021032054
67	0xbc4d4c33	-0.012530374
68	0xbcae8027	-0.021301342
69	0xbca23240	-0.019799352
70	0xbcb55284	-0.022134073
71	0xbd035899	-0.032066915
72	0xbcfe9c2c	-0.031080328
73	0xbcb58311	-0.022157224
74	0xbcd0e35f	-0.025499044
75	0xbc15319f	-0.009106069
76	0x3dd8b322	0.10581042
77	0xbc02a19f	-0.007973104
78	0xbc801eea	-0.015639741
79	0xb9badf8a	-0.00035643234
80	0xbca81e79	-0.020522343
81	0xbce09383	-0.02741409
82	0x3b60e6ab	0.0034317176
83	0x3d34ee2f	0.044172462
84	0xbd10627a	-0.035250165
85	0xbf12ab10	-0.5729227
86	0x3f1d575c	0.61461425
87	0xbe6e5f82	-0.23278621
88	0xbcc834de	-0.024439272
89	0x3d58c365	0.052920718
90	0x3e65606f	0.22400068
91	0xbeb8b8ed	-0.36078587
92	0xbf88d085	-1.0688635
93	0x3f7084d4	0.9395268
94	0x3e1f7dc3	0.15575318
95	0x3e29e828	0.16592467
96	0xbb924768	-0.0044640787
97	0xbc921979	-0.017834412
98	0xbd02f674	-0.031973317
99	0xbbc9d56c	-0.006159475
100	0xbcd2531f	-0.0256744
101	0xbc833c4e	-0.016019966
102	0xbd1e391a	-0.038628675
103	0xbcbd79c8	-0.023129359
104	0xbd2b7d13	-0.041867327
105	0xbd0b0177	-0.033936944
106	0xbc84c854	-0.016208805
107	0xbb696e2f	-0.0035618653
108	0x3e259d25	0.16173227
109	0xbbf2f7d8	-0.007414799
110	0xbb62591f	-0.0034537984
111	0x3a8e46fe	0.0010854898
112	0xbb4e0934	-0.003143859
113	0xbc3a0bf6	-0.011355391
114	0xbceffe3a	-0.02929603
115	0xba8ea39b	-0.0010882498
116	0xbd044a77	-0.032297578
117	0xbc974adc	-0.018468313
118	0xbd131f5e	-0.035918586
119	0xbc878dd1	-0.016547116
120	0xbd4a9cbd	-0.049465884
121	0xbd44bd5e	-0.048032157
122	0xbc8d18cc	-0.017223738
123	0x3b814bf3	0.0039458214
124	0x3e55c125	0.2087446
125	0xbc64542a	-0.013936082
126	0xbc06027e	-0.008179305
127	0xbaf638ad	-0.0018785201
128	0xbc0f083c	-0.008729991
129	0xbcd29729	-0.025706844
130	0xbd2813db	-0.04103456
131	0xbc17c92b	-0.009264271
132	0xbd4cac68	-0.049969107
133	0xbcff125a	-0.03113668
134	0xbd217cf5	-0.03942581
135	0xbd32f70f	-0.043692645
136	0xbd5ee386	-0.054416202
137	0xbd2955b0	-0.041341484
138	0xbc7764f0	-0.015099749
139	0xbbc3014f	-0.0059510837
140	0x3e6ad747	0.22933684
141	0xbaff580a	-0.0019481194
142	0xbc852232	-0.016251657
143	0x3aa68917	0.0012705651
144	0xbe8e65db	-0.27812085
145	0x3c6756f3	0.014119851
146	0x3bd152a2	0.0063880244
147	0x3e3e954d	0.18611641
148	0xbddc41da	-0.10754748
149	0x3f502e94	0.8132107
150	0x3e8db75d	0.27678958
151	0xbe95de31	-0.2927108
152	0xbdbe2892	-0.09285082
153	0x3dd8c604	0.105846435
154	0x3eb8cde7	0.3609459
155	0xbf0b8141	-0.544941
156	0xbf5fb495	-0.8738492
157	0xbe50475e	-0.20339724
158	0x3ea40361	0.32033828
159	0x3d9b14cc	0.07572326
160	0xbe8eb190	-0.27869844
161	0x3e005fa0	0.12536478
162	0xbc13dbbf	-0.0090245595
163	0xbcf55e9f	-0.029952345
164	0x3ce97292	0.028497014
165	0xbee00a9b	-0.4375809
166	0x3f1820ca	0.5942503
167	0x3ed5ab69	0.41732338
168	0x3abe745c	0.0014530527
169	0xbde09240	-0.10965395
170	0xbeb1c267	-0.3471863
171	0x3f10922e	0.5647305
172	0x3ed16524	0.40897477
173	0xbeec23fb	-0.461212
174	0xbe492a57	-0.19645058
175	0xbeb0716d	-0.34461537
176	0x3c8f0860	0.017460048
177	0x3ca2145c	0.019785099
178	0xbc2aac37	-0.010417036
179	0xbd6b735f	-0.057483073
180	0x3cedc722	0.029025618
181	0x3f31f51e	0.69514644
182	0xbf404a9a	-0.7511383
183	0x3e9d4458	0.30716205
184	0xbb42526c	-0.0029651178
185	0xbdd4e404	-0.10395053
186	0xbe99d222	-0.3004313
187	0x3eec34a3	0.4613391
188	0xbfa99c4f	-1.3250827
189	0x3f52d242	0.8235208
190	0xbe53f91c	-0.20700496
191	0xbe570c39	-0.21000756
192	0xbb1704c8	-0.0023043621
193	0xbc35bd6a	-0.011092523
194	0xbccc0031	-0.024902435
195	0xbbbb77f2	-0.0057210857
196	0xbcf48059	-0.029846357
197	0xbca1dd56	-0.019758862
198	0xbd099f3b	-0.03359912
199	0xbc809e15	-0.01570038
200	0xbd3942f0	-0.045229852
201	0xbd45728e	-0.04820495
202	0xbcb2ff67	-0.021850301
203	0x3b2a3a3a	0.0025974647
204	0x3e3d105c	0.18463272
205	0xbc833103	-0.016014582
206	0xbbd77584	-0.0065752883
207	0xbb84f454	-0.0040574465
208	0xbbd6c37f	-0.0065540667
209	0x3b8d761a	0.0043170573
210	0x3f886681	1.0656282
211	0x3b1f2d7b	0.0024288583
212	0x3bd96feb	0.006635656
213	0x3b9aa5d0	0.0047194734
214	0x3844835e	4.6852387e-05
215	0x3b755bdb	0.0037438783
216	0xbbd70d57	-0.0065628695
217	0x3b2725cc	0.0025504706
218	0xbb8c552c	-0.004282614
219	0x3ac88730	0.0015299078
220	0xbd241c52	-0.04006607
221	0xbbcd08a9	-0.006257136
222	0xbb17459a	-0.0023082257
223	0xbb90c041	-0.0044174497
224	0xbdfd0ca2	-0.12355925
225	0x3d696ba9	0.05698744
226	0xbbf2cc2b	-0.0074095926
227	0x3e38dd41	0.18053152
228	0xbe1a83f4	-0.15089399
229	0x3e8aea43	0.27131853
230	0xbe26e442	-0.16298011
231	0x3e76ae8c	0.24090022
232	0x3d8190ef	0.06326472
233	0xbd87ec6f	-0.06636893
234	0xbe6bd84c	-0.2303173
235	0xbe2f1d74	-0.17101079
236	0x3f3efe3a	0.7460667
237	0xbec1f3d2	-0.37881333
238	0xbee9aa7f	-0.4563789
239	0x3f4d30c9	0.80152565
240	0xbbf10af8	-0.007356044
241	0xbcb291b9	-0.021798002
242	0xbcb77e1f	-0.022399006
243	0xbc249932	-0.01004629
244	0xbd26f9d2	-0.04076559
245	0xbd0bf15a	-0.034165718
246	0xbd13e9b4	-0.03611155
247	0xbccaf2f0	-0.024774045
248	0xbd522290	-0.051302493
249	0xbd31910c	-0.043351218
250	0xbcc3c33a	-0.023896802
251	0xbc63bf44	-0.013900582
252	0x3e2923a1	0.16517498
253	0xbca5d4f8	-0.020243153
254	0xbc3f386b	-0.011671166
255	0xbb0fcc81	-0.0021941962

fc3.bias f4 [44]
0	0x3d1d1b46	0.038356088
1	0x3d79a2fd	0.060946453
2	0x3d2a98d0	0.04164964
3	0x3ca7edfe	0.020499226
4	0x3d066a28	0.032816082
5	0xbb2a7a8e	-0.002601299
6	0x3cc409b1	0.023930402
7	0x3cb16104	0.021652706
8	0x3d132c13	0.035930704
9	0xbb7f8e62	-0.003899478
10	0x3ba39ae5	0.00499283
11	0x3c261b69	0.010138371
12	0x3ccadf41	0.024764659
13	0xbbc624de	-0.0060468754
14	0x3be5a177	0.0070077735
15	0x3d3b4ad7	0.04572567
16	0x3ceaf12f	0.028679458
17	0x3cc0e3bf	0.023546098
18	0x3a91ee4d	0.0011133641
19	0x3c30c642	0.010789456
20	0x3d338053	0.04382355
21	0xbae63258	-0.0017562611
22	0x3d5b59d4	0.053552464
23	0xba9ec926	-0.001211439
24	0x3ab39cc4	0.0013703336
25	0x3d49d046	0.04927089
26	0xba2acce1	-0.00065155147
27	0x3d0eb176	0.03483721
28	0xbb91658a	-0.004437153
29	0x3bccffa6	0.0062560616
30	0x3d1eef25	0.038802285
31	0x3d2b29d9	0.041787956
32	0x3ccf188b	0.025280258
33	0xbb3b3c03	-0.0028569705
34	0xbbb96bb9	-0.0056585935
35	0x3cadb581	0.021204712
36	0x3d59f94e	0.05321627
37	0x3c05ccaa	0.0081664715
38	0x3d2e6e9e	0.04258596
39	0x3d0d26ec	0.034460947
40	0x3d3f69f4	0.046731904
41	0xbc132e2e	-0.008983178
42	0x3d3f034a	0.046633996
43	0x3cf13af0	0.029447049
